…
d":true,"execution":{"iopub.status.busy":"2025-05-17T20:26:28.218616Z","iopub.execute_input":"2025-05-17T20:26:28.218905Z","iopub.status.idle":"2025-05-17T20:26:28.252637Z","shell.execute_reply.started":"2025-05-17T20:26:28.218883Z","shell.execute_reply":"2025-05-17T20:26:28.251864Z"},"collapsed":true,"jupyter":{"outputs_hidden":true}},"outputs":[{"name":"stdout","text":"----------------------------------------------------------------\n        Layer (type)               Output Shape         Param #\n================================================================\n            Conv2d-1         [-1, 16, 148, 148]             448\n              ReLU-2         [-1, 16, 148, 148]               0\n            Conv2d-3         [-1, 16, 146, 146]           2,320\n              ReLU-4         [-1, 16, 146, 146]               0\n       BatchNorm2d-5         [-1, 16, 146, 146]              32\n         MaxPool2d-6           [-1, 16, 48, 48]               0\n            Conv2d-7           [-1, 32, 46, 46]           4,640\n              ReLU-8           [-1, 32, 46, 46]               0\n            Conv2d-9           [-1, 32, 44, 44]           9,248\n             ReLU-10           [-1, 32, 44, 44]               0\n      BatchNorm2d-11           [-1, 32, 44, 44]              64\n        MaxPool2d-12           [-1, 32, 22, 22]               0\n           Conv2d-13           [-1, 64, 20, 20]          18,496\n             ReLU-14           [-1, 64, 20, 20]               0\n           Conv2d-15           [-1, 64, 18, 18]          36,928\n             ReLU-16           [-1, 64, 18, 18]               0\n      BatchNorm2d-17           [-1, 64, 18, 18]             128\n        MaxPool2d-18             [-1, 64, 9, 9]               0\n           Conv2d-19            [-1, 128, 7, 7]          73,856\n             ReLU-20            [-1, 128, 7, 7]               0\n           Conv2d-21            [-1, 128, 5, 5]         147,584\n             ReLU-22            [-1, 128, 5, 5]               0\n      BatchNorm2d-23            [-1, 128, 5, 5]             256\n           Conv2d-24            [-1, 256, 5, 5]         295,168\n             ReLU-25            [-1, 256, 5, 5]               0\n           Conv2d-26            [-1, 256, 5, 5]         590,080\n             ReLU-27            [-1, 256, 5, 5]               0\n      BatchNorm2d-28            [-1, 256, 5, 5]             512\n        MaxPool2d-29            [-1, 256, 2, 2]               0\n          Dropout-30            [-1, 256, 2, 2]               0\n           Linear-31                  [-1, 256]         262,400\n             ReLU-32                  [-1, 256]               0\n      BatchNorm1d-33                  [-1, 256]             512\n          Dropout-34                  [-1, 256]               0\n           Linear-35                  [-1, 128]          32,896\n             ReLU-36                  [-1, 128]               0\n      BatchNorm1d-37                  [-1, 128]             256\n          Dropout-38                  [-1, 128]               0\n           Linear-39                   [-1, 64]           8,256\n             ReLU-40                   [-1, 64]               0\n      BatchNorm1d-41                   [-1, 64]             128\n          Dropout-42                   [-1, 64]               0\n           Linear-43                   [-1, 32]           2,080\n             ReLU-44                   [-1, 32]               0\n      BatchNorm1d-45                   [-1, 32]              64\n          Dropout-46                   [-1, 32]               0\n           Linear-47                   [-1, 16]             528\n             ReLU-48                   [-1, 16]               0\n      BatchNorm1d-49                   [-1, 16]              32\n          Dropout-50                   [-1, 16]               0\n           Linear-51                    [-1, 6]             102\n================================================================\nTotal params: 1,487,014\nTrainable params: 1,487,014\nNon-trainable params: 0\n----------------------------------------------------------------\nInput size (MB): 0.26\nForward/backward pass size (MB): 17.35\nParams size (MB): 5.67\nEstimated Total Size (MB): 23.28\n----------------------------------------------------------------\n
…
